课程文件/ex_05_implicit_models_and_recognition/ex_05_implicit_models_and_recognition/code/output/model_best.pt (torch, 72354 bytes, 11 tensors)

main.0.weight f4 [64, 3]
000000 2d 84 5f bd 8b eb ca 3e 18 6d d1 3e c1 2d 7b be
       -0.054569412 0.3963283 0.40903544 -0.24529172
000010 a9 86 f2 bd fe a7 d9 3e 3e 0f f6 be a4 76 70 3e
       -0.11842091 0.4251098 -0.48058504 0.23482758
000020 a9 65 f0 be 30 0b a4 be 60 a4 2e be b5 e1 96 be
       -0.4695256 -0.32039785 -0.17054892 -0.29469076
000030 85 b1 4e 3e e6 01 68 3d 59 f4 cd bc 82 b1 43 3f
       0.20184906 0.056642435 -0.025140928 0.7644273
000040 94 c8 b4 3e 63 d6 f1 3e d1 8c d3 be 3b eb 5d be
       0.3530928 0.47233877 -0.41318372 -0.21671765
000050 33 2a d1 3e c2 fd 0d bd b1 10 41 bf 19 7e 8e 3c
       0.40852508 -0.03466583 -0.75416094 0.017394112
000060 c7 8f cb 3d 5b e1 a6 3d 7d 93 99 be 39 f7 33 bf
       0.09939533 0.08148452 -0.29995337 -0.70299107
000070 ff ed 3b 3d 05 e1 1b bf 09 95 42 3f 1e f1 8d 3e
       0.045881268 -0.6089023 0.7600866 0.2772302
000080 4e 7d fd 3e 23 bb df be 55 05 9f bd 2a a9 b0 3d
       0.49509662 -0.4369746 -0.07764689 0.086260155
000090 c2 b4 40 3e f0 34 d0 bb 9e b3 d8 bb 86 fa 0a be
       0.18818954 -0.006353967 -0.006613209 -0.1357213
0000a0 9c 29 22 3f 8d 32 33 bf 9e 12 1a bf d8 8a fa be
       0.6334474 -0.6999901 -0.6018466 -0.48934054
0000b0 ca dc 13 bf 48 06 ea 3e c9 b9 c0 3e 45 4b 1e 3f
       -0.5775877 0.45707917 0.37641743 0.618336
0000c0 42 af 84 be 36 33 9e bf 17 59 6c be b8 7e 0f 3f
       -0.2591496 -1.2359378 -0.2308086 0.5605273
0000d0 1f 36 fd be 81 1b cc 3e 35 00 08 bc bc 40 1c 3f
       -0.49455354 0.39864734 -0.008300831 0.61036277
0000e0 f9 0f 2f 3f c1 4a 9a bf 8d 8d b0 3d f3 10 f3 bc
       0.6838375 -1.2054063 0.08620749 -0.029671168
0000f0 ec 46 0f 3f 79 f0 54 3e 8f f7 cb bb f2 2c 1b 3f
       0.55967593 0.20794858 -0.0062245796 0.60615456
000100 57 59 98 be 4c a4 3f bf 53 17 3f be be 1f 16 bf
       -0.2975566 -0.7486007 -0.18661241 -0.58642185
000110 e3 e9 4c bf 57 c9 59 bf e3 5e ff be 8c 38 de 3e
       -0.8004438 -0.85072845 -0.4987708 0.43402517
000120 03 c8 a9 be 86 fc f3 3e b5 af 04 3f 5f 59 1c 3f
       -0.3316041 0.47653598 0.5183061 0.6107387
000130 b4 1a 04 3e 9e 52 94 3e 0c f4 3f 3f 1b a3 56 bf
       0.12900811 0.28969282 0.7498176 -0.8384263
000140 d2 3f 91 be 33 87 cb bd ac 78 9e 3f 05 ac 45 3e
       -0.28369004 -0.099378966 1.2380576 0.19303901
000150 6e 21 7c 3e 06 6e 1a bf 40 27 f0 be d4 59 2c 3f
       0.24622127 -0.6032413 -0.46904945 0.67324567
000160 3b 58 1f 3f 63 86 2c bd c9 74 25 bf f1 33 a9 3e
       0.62244004 -0.04212035 -0.64631325 0.3304744
000170 da 03 4a bf cf 34 3b 3f 0d 6f 0d bf ea 5c ef bc
       -0.78912127 0.73127455 -0.55247575 -0.02921911
000180 3a 1e b3 3e 6b c1 32 bf ae b5 4d bf d8 0c 64 bf
       0.34984 -0.6982638 -0.80355346 -0.890821
000190 cc 7e b2 be a5 bd 15 3f 85 67 b2 3e c5 a5 ab 3c
       -0.34862363 0.584925 0.34844604 0.020953069
0001a0 e9 b2 b9 3e 6d 58 3e bd c8 69 6f bf c8 d3 89 be
       0.3626931 -0.04647105 -0.93520784 -0.2691939
0001b0 7b 92 df be dc a6 3a be 10 f6 81 bd c3 a1 60 3b
       -0.43666443 -0.18227714 -0.06345761 0.0034276105
0001c0 6b 34 b0 3e 2d 4b 00 bf bb af 0d bd 51 40 c9 bb
       0.34414992 -0.5011471 -0.034591418 -0.0061417003
0001d0 a1 34 01 be 76 e4 41 3f 35 9a a8 bd ae 0b 71 3f
       -0.12617733 0.7573923 -0.08232538 0.94158447
0001e0 93 23 a4 be d8 ee 82 3f a4 bc 70 be 2c d8 b2 3e
       -0.3205839 1.0229139 -0.2350946 0.3493055
0001f0 d1 69 c4 bd 15 07 95 bf c4 f6 8c 3d 98 bb 4e be
       -0.095904954 -1.1642786 0.06883004 -0.20188749
000200 12 79 20 3f e6 3d 10 bf 9b 2b 57 3f 22 28 76 3e
       0.6268474 -0.5634445 0.8405091 0.24038747
000210 73 7a 9f 3e 09 ff 0a 3d 1e 26 a6 3c ba 38 34 3f
       0.3114811 0.033934627 0.020281848 0.7039906
000220 d3 d4 f9 be e6 3f 87 bf 4b fb bb 3d a6 36 57 3c
       -0.48795184 -1.0566375 0.0917879 0.013135588
000230 4e 5d b6 bf 6a b6 d8 3e 1b 8c c0 be 47 8a 13 3f
       -1.4247224 0.4232667 -0.37606892 0.5763287
000240 3f de e8 be cd fd aa 3c 97 43 18 bf b9 6a eb 3e
       -0.4548206 0.020872975 -0.59478134 0.4597986
000250 e5 d7 1f 3f 18 66 09 3d 1d 04 c8 3e 6a 1f fa bd
       0.62438804 0.03354463 0.39065638 -0.12213023
000260 26 21 f3 be 7f bc a7 3d 7c 14 d5 3c 7e 65 9f be
       -0.47486228 0.0819025 0.026010744 -0.3113212
000270 08 be 06 bf 3e 1b 81 bd 84 90 2a 3d 6a 30 80 bf
       -0.52633715 -0.06304024 0.041641727 -1.0014775
000280 ac 1a 9b 3e 70 17 bc be e6 4e 4b 3f 92 55 81 3d
       0.30293787 -0.3673663 0.79417264 0.06315149
000290 ad ea db 3c 85 87 27 3f cc 17 23 3f 01 20 e8 be
       0.0268453 0.6544116 0.63708186 -0.45336917
0002a0 67 f2 fa 3e 55 3f fb be b7 71 34 3f df 18 d2 3e
       0.49013063 -0.49071756 0.70486015 0.410346
0002b0 03 61 1f bd 3f 25 b1 3d 0e 39 da 3d 7a 19 91 be
       -0.038910877 0.08649682 0.106554136 -0.2833975
0002c0 88 2e 9d bc 55 f9 c9 3d 4a d5 45 3f 5d 97 16 bf
       -0.019187227 0.098620094 0.7727858 -0.5882471
0002d0 b5 cc 24 3f 6a 21 21 3f 2f 62 51 be 7f 36 8e 3e
       0.6437486 0.6294161 -0.2044761 0.27775952
0002e0 71 ad 1a 3f 53 ba 7e bf 68 80 3c 3f 05 ea a1 be
       0.604209 -0.9950306 0.7363343 -0.31623855
0002f0 33 fb 99 3c 63 bf 6f be f5 3e 82 bf 8b 66 9e 3e
       0.018796539 -0.23412852 -1.0175463 0.3093761

main.0.bias f4 [64]
000000 c8 eb b6 bd 35 d3 02 bf 7c b3 5b 3e ce be 1c 3e
       -0.089316905 -0.51103526 0.21455187 0.15307161
000010 6e a7 f9 be a4 92 d2 3e c4 83 c9 3e eb 21 70 be
       -0.4876055 0.41127503 0.39358342 -0.23450439
000020 77 b7 91 be 2f 0d 2b 3d 2f a9 ae 3e d1 75 61 3e
       -0.28460285 0.04176062 0.34113452 0.220176
000030 23 f4 77 ba 8f 05 44 3d bc a5 f2 3c 5b 1d 57 bd
       -0.00094586815 0.047856864 0.029620044 -0.05251823
000040 18 46 22 be 4b 5c 0c bd e8 9f 0d be 9a f7 0d be
       -0.15847051 -0.034267705 -0.1383053 -0.13863984
000050 67 3d df be 15 76 e4 3d 4f a2 a2 3d b7 4d 8b be
       -0.43601534 0.11155335 0.07941114 -0.2720773
000060 67 f0 61 3e a3 66 9b 3e 81 67 fd be 70 cc a5 be
       0.22064362 0.30351743 -0.4949303 -0.32382536
000070 8b 14 d7 3e 87 a3 22 bd 7c 51 73 3e 0d 8c 27 3c
       0.4200786 -0.039706733 0.23761553 0.010226262
000080 ff 07 b6 3c 5d 9a 5c be 7e a8 5c bc 3c d3 85 be
       0.02222061 -0.2154326 -0.013467906 -0.26137722
000090 10 d3 de be f3 3b e5 3d 4d ac a8 bd 7e d3 48 be
       -0.43520403 0.11193075 -0.08235989 -0.19611928
0000a0 c8 df 06 be 41 32 82 3c a8 1e 96 bd 78 09 14 be
       -0.13171303 0.015893104 -0.07330066 -0.14456737
0000b0 60 f2 75 be 7c f9 73 3e 55 fc 05 3e a4 0e 59 bd
       -0.2401824 0.2382564 0.13084538 -0.052992478
0000c0 bc e3 44 3e bd a1 b6 be be 06 6d 3e 51 70 05 bf
       0.19227499 -0.35670272 0.23147103 -0.52124506
0000d0 cf a1 76 3e e5 1c 52 be 31 19 92 3e 52 5b 29 bd
       0.24085163 -0.20518835 0.28534845 -0.041346855
0000e0 e4 b4 45 bd 17 96 9f be 0e a2 f0 3d 46 99 f8 3b
       -0.048268214 -0.31169197 0.117496595 0.007586631
0000f0 d2 e2 29 3d ed 8a d8 3d b6 3b 9f 3e 5d ad 67 be
       0.04147608 0.10573373 0.31100243 -0.22624727

main.2.weight f4 [64, 64]
000000 0c e6 b3 be 66 c3 f4 bd 5e f9 ce bd bd ac a1 be
       -0.3513645 -0.11951332 -0.10106157 -0.315771
000010 e6 d6 ad bd 61 8a f7 3c 57 28 fd be 3d dc c2 be
       -0.08488254 0.030217351 -0.4944484 -0.38058653
000020 b4 5b a6 bd da 3e ce bc 75 b8 ee bc 09 db 00 bf
       -0.0812296 -0.025176454 -0.02914069 -0.5033422
000030 80 63 e4 bd 38 6f 95 3e f8 91 d2 bd 27 b5 1d 3e
       -0.111517906 0.29186416 -0.102817476 0.15401135
000040 24 b6 a9 bd 21 9c 07 bf f4 28 1d be 02 70 48 3f
       -0.08286694 -0.5297261 -0.15347654 0.7829591
000050 80 a0 c4 ba fc cd 05 3d a5 9b 1b be 1c 7c 80 3d
       -0.0015001446 0.032667145 -0.15196092 0.06273672
000060 34 a3 14 bb d9 a2 1c be d1 50 69 3e 23 2a bd bf
       -0.0022680284 -0.15296496 0.22784735 -1.4778484
000070 a4 d0 13 be f4 df 94 3e 0b 34 b1 3b 46 d5 5c 3e
       -0.14435059 0.29077113 0.0054078153 0.21565732
000080 0a 0d 01 be 84 d9 1d 3e 86 5d 36 3d ce d2 e3 3d
       -0.1260263 0.15415007 0.044522785 0.11124192
000090 02 40 e8 bd 9a 07 49 3c c1 cf c7 bd 30 7d 21 be
       -0.113403335 0.012269879 -0.09756423 -0.15770411
0000a0 7b 96 a2 3e 32 05 91 3e db 33 e9 3d e0 51 b5 3e
       0.31755432 0.28324276 0.11386844 0.35414028
0000b0 70 14 32 bd 71 6f 45 be f8 17 0f bc 81 58 22 bb
       -0.043476522 -0.19280793 -0.008733742 -0.002477199
0000c0 d4 a1 c8 bd e6 58 25 bf e1 02 39 bd 68 d5 e0 bc
       -0.09796491 -0.64588773 -0.04516876 -0.02744551
0000d0 e9 30 53 be a2 32 3c 3f f3 23 0b bd db 04 c0 3e
       -0.20624126 0.7351476 -0.03396983 0.37503704
0000e0 c6 f8 21 bc a9 bc e8 3d 8d 61 c4 be 91 cb 95 3e
       -0.009885972 0.11364109 -0.38355675 0.2925687
0000f0 7f 05 e4 3d e5 d4 9b 3e c7 20 32 be b6 a8 dc 3d
       0.11133861 0.30435863 -0.17395316 0.107743666
000100 18 ad 30 bd 68 80 b3 3d 80 89 54 3d 20 8c 68 bd
       -0.043133825 0.08764726 0.051888943 -0.05677426
000110 b8 cb 12 3d 00 3b 20 bc f8 6a c9 bd 00 78 f3 3a
       0.035838813 -0.009779692 -0.09834856 0.0018575191
000120 f0 7f e0 3d d8 bc fa 3d e0 c9 ce 3b 40 8e 55 bd
       0.10961902 0.1224305 0.0063106865 -0.052137613
000130 ce 0b b3 bd 7a 1a f5 3d 08 ae c7 bc 44 6c 50 3d
       -0.08742486 0.11967941 -0.024374977 0.0508845
000140 f0 ed 7a bc 00 1f 86 bd f0 5d 92 3c 70 00 f4 bd
       -0.015315518 -0.065488815 0.017867059 -0.11914146
000150 a6 6f b4 bd d4 8a 80 bd 82 70 d3 bd ea 40 f7 bd
       -0.08810358 -0.06276479 -0.103241935 -0.12072928
000160 9c d2 66 3d 08 50 b7 3c 32 88 fd bd 74 ba 2e 3d
       0.056353197 0.022377029 -0.12379493 0.042658284
000170 00 7c dd bc 06 49 e0 3d 44 1a 82 3d f2 e5 ca 3d
       -0.027036667 0.10951428 0.06352666 0.0990714
000180 c4 60 40 3d 7c 0b f9 3d 7a 83 82 bd a0 3b e6 bd
       0.046967283 0.121603936 -0.063727334 -0.11241841
000190 6e 3e cb bd 8c 32 b3 bd 08 12 ed 3c 3c 83 75 bd
       -0.09924017 -0.087498754 0.028939262 -0.059939608
0001a0 f6 c6 ef bd 50 1d 02 3c d4 7f f0 3d e8 7b b8 3d
       -0.11707871 0.007941559 0.11743131 0.09008008
0001b0 4e b8 bc bd 2e c7 e0 bd 3a 1a 88 3d 10 da ca bd
       -0.09214841 -0.109754905 0.06645627 -0.09904873
0001c0 d2 33 fe 3d 00 58 f3 ba 44 a8 ef bd 90 78 e0 bc
       0.12412228 -0.0018565655 -0.11702016 -0.027401239
0001d0 20 89 52 bd 9c c4 98 bd 74 16 27 bd 4e 4f 83 bd
       -0.051400304 -0.07459375 -0.040792897 -0.064116105
0001e0 20 b4 c9 3d 48 12 b5 bc c8 42 f8 3d 44 78 a0 bd
       0.09848809 -0.022103444 0.121221125 -0.07835439
0001f0 b4 2a 3b 3d 40 d1 27 bc 04 c3 88 bd 5a 9b ce bd
       0.04569502 -0.01024276 -0.06677821 -0.10088225
000200 07 75 10 3e 20 a9 fb bb 58 90 5c bb 1e 41 45 be
       0.14107142 -0.0076800734 -0.0033655372 -0.19263121
000210 ee 3c e8 bd 62 80 1a be 46 e5 90 be b4 ef de 3d
       -0.113397464 -0.15088037 -0.28299922 0.108855635
000220 70 f7 94 bc 0a ab b5 bd 4f 78 ba bc c2 f1 4e be
       -0.018184394 -0.08870514 -0.022762446 -0.20209411
000230 ee 15 ee bd 44 bd c7 3e 53 1d 5b be e5 fe 5b 3e
       -0.116252765 0.39011586 -0.21397905 0.21483953
000240 d0 60 07 3e bd 3f c7 be b4 40 eb 3d dc 32 8b bd
       0.13220525 -0.38915816 0.114869505 -0.0679681
000250 e4 e6 10 bd cc 5e a5 bd f3 32 fd be e1 f8 34 3f
       -0.035376444 -0.08074722 -0.49452934 0.7069226
000260 8a 20 8a 3d ad f5 4b be d9 4c 29 3e 68 03 81 3f
       0.067444876 -0.19917937 0.16533221 1.0079165
000270 50 e1 e9 be 91 dc b9 3e 87 fa 1d bc ee b1 b5 be
       -0.45679712 0.3630109 -0.00964225 -0.35487312
000280 2a 03 fa be 19 80 01 3c 3c 27 ac bb 7a e6 0e 3e
       -0.4883054 0.007904076 -0.0052537005 0.13955107
000290 80 14 d7 3b f0 38 4e 3c 9f 64 a5 bd f1 7d b9 bd
       0.006563723 0.012586817 -0.080758326 -0.090572245
0002a0 43 4c 07 3f 8b fc 7a be d3 05 84 bb 04 c0 80 3e
       0.5285074 -0.245104 -0.0040290146 0.25146496
0002b0 fa aa cc 3d 99 5e 1e be 99 31 be 3c 81 5e c5 bd
       0.09993549 -0.15465774 0.02321701 -0.09637166
0002c0 f5 40 8b bd 2c 09 85 3f 52 67 c1 bd ec 21 d2 bd
       -0.06799499 1.0393424 -0.09443535 -0.10260376
0002d0 3f 5e 54 be a2 32 6a 3e 2c b2 22 be 05 f3 c8 3e
       -0.20739077 0.22870877 -0.1588828 0.3924791
0002e0 56 8b 99 bd 89 a8 ca 3d 64 6b e3 be 70 55 ac 3e
       -0.07497279 0.09895427 -0.4441787 0.33658934
0002f0 f4 3f f7 3d 11 e1 8a 3e 6d 52 3f be b1 04 81 3e
       0.12072745 0.27124837 -0.18683787 0.25198892
000300 97 7e 16 3f ac e2 d4 bd 07 af 02 be 4b e9 e1 bd
       0.5878691 -0.10394797 -0.1276208 -0.11030825
000310 aa b8 c8 bd ce f8 e1 3d 05 fd aa bc 44 b1 97 3d
       -0.09800847 0.11033784 -0.020872602 0.074068576
000320 8a d7 c1 bd bc 8e 40 ba 0e b1 f3 3c d2 8e 8d 3c
       -0.09464939 -0.0007345488 0.029747512 0.017280016
000330 d0 9a af bd 0a e2 8c be 78 38 f3 3d c8 b9 85 3e
       -0.0857445 -0.27516204 0.11876005 0.26118302
000340 a1 8e a7 3e 75 19 81 be 82 5a e4 3e 6c 95 08 be
       0.32726005 -0.25214735 0.44600302 -0.1333825
000350 e4 b6 e8 bd 01 be 00 bf 22 46 6c 3e da 36 b0 be
       -0.113630086 -0.5028992 0.23073629 -0.34416848
000360 53 83 1e 3e 99 44 8b bd 44 1e cd 3d 20 03 4d 3f
       0.15479784 -0.06800193 0.10015538 0.80082893
000370 3e c6 28 bf 9d f4 38 3d d9 a6 50 be d6 96 cb be
       -0.65927494 0.045155156 -0.20376147 -0.39763516
000380 78 09 ed 3d 41 a5 b9 be c6 0a 02 3e 53 4f 94 3e
       0.11574072 -0.3625889 0.12699422 0.2896677
000390 26 06 ed 3d d3 bc 87 bd d2 a4 bd bd a0 a1 c1 3e
       0.11573438 -0.06627812 -0.092599526 0.37818623
0003a0 f7 2f 21 3e de 3c 44 3e 7e af f9 3e b1 90 23 3e
       0.15740953 0.19163844 0.48766702 0.15973164
0003b0 26 83 db 3d 3c db 09 bf 12 3a 4c 3d 15 cf 95 3e
       0.10718374 -0.5385015 0.049860068 0.29259554
0003c0 65 6a b5 be c0 b1 8a 3e cb 0a f9 be 08 6d f8 bd
       -0.35432735 0.27088737 -0.48641047 -0.12130171
0003d0 3c ea d7 bd ab f8 03 3e b6 d2 93 bc 77 c2 dd bd
       -0.105427235 0.12887828 -0.01804481 -0.10828107
0003e0 68 02 81 3e 0e 30 11 3c 8a 61 ca be 4d c4 0c be
       0.25197148 0.008861555 -0.3952754 -0.13746758
0003f0 b1 b2 43 be 56 90 f4 be 6e 3f 33 be 9c 51 a3 3e
       -0.19111134 -0.4776637 -0.17504665 0.318982

main.2.bias f4 [64]
000000 52 39 05 be a8 fd 7b bd 2c ba 09 bd 4b 2a 18 be
       -0.13010147 -0.061521202 -0.033624813 -0.14859883
000010 5e b7 1b bd 4a 9a 60 be 57 bd b5 bd 2d 4e ca bd
       -0.03801667 -0.21933857 -0.08874004 -0.09878192
000020 48 19 4b be 63 7e 16 bd 89 83 3d be f9 43 ef b9
       -0.19833863 -0.036741626 -0.18507208 -0.00045636276
000030 dd e9 e2 bc c9 fb 76 bd aa 76 4c 3d 78 d9 c4 bd
       -0.027699405 -0.060298715 0.049917854 -0.09611791
000040 9e c9 c1 bd b6 7b 59 bd 3c 33 a5 bd 5a ef 88 bd
       -0.094622836 -0.053096496 -0.08066413 -0.06686278
000050 dd 3a 40 be 83 70 8d bd cc 0e 91 bd b5 3d 73 be
       -0.18772455 -0.069062255 -0.070829004 -0.23754008
000060 ab 47 57 bd b7 c7 08 be f0 75 0a be 67 5e 0e be
       -0.052558582 -0.13357435 -0.13521552 -0.13903199
000070 5d 46 c5 3d 64 5d 07 be 4e bf 88 bd c5 b0 c7 b9
       0.09632561 -0.1321922 -0.066771135 -0.0003808794
000080 bb 75 06 3d c7 0e b5 3d 02 20 39 bb 91 d1 3d be
       0.03282712 0.08840709 -0.0028247838 -0.18536974
000090 3e 38 82 bd 42 0e f8 bc 17 41 07 ba 36 44 26 be
       -0.063583836 -0.030280236 -0.00051595405 -0.16236958
0000a0 a4 c6 8d bc 95 83 00 be 35 75 65 be 3a 04 99 bd
       -0.017306633 -0.12550195 -0.22407992 -0.07471509
0000b0 db 1d 28 bd 81 82 59 bd d4 ab 32 be 4a 0a 55 be
       -0.041044097 -0.053102974 -0.1744836 -0.20804706
0000c0 56 fc b7 bd e3 d4 43 be 89 04 37 bd 4e 96 ed bc
       -0.08983676 -0.19124179 -0.04468206 -0.029002335
0000d0 de 8a 82 bc 90 d2 06 be ce 6c f4 bd 86 11 b7 bb
       -0.015935358 -0.1316626 -0.11934815 -0.0055868058
0000e0 c5 d3 c7 bc cb 69 32 3d a6 68 ba bd 7c b8 72 3c
       -0.024392972 0.043557923 -0.09101991 0.014814492
0000f0 a8 b6 2b bd 1e cd d9 bd c3 5c f4 3c 3e 4a a3 bd
       -0.04192224 -0.10634826 0.029829388 -0.07973145

main.4.weight f4 [64, 64]
000000 e8 bb 9d 3d 60 db f0 bc 89 12 3a 3d e6 78 ba 3e
       0.07701856 -0.029401481 0.045427833 0.36420363
000010 2c bb ca bd c4 ae ba be 46 b7 75 bd da b5 08 be
       -0.098989815 -0.3646146 -0.059989236 -0.13350621
000020 80 7d 11 3d a7 4a 37 be 58 6e 1e be 54 ee 45 be
       0.035520077 -0.17899571 -0.1547178 -0.19329196
000030 23 6b d6 bd 1d 6e 5f 3d ab 32 6b 3e 75 a7 f8 3c
       -0.104696535 0.05454837 0.22968547 0.030353287
000040 18 50 0a bc 63 28 5f bd 70 d2 04 3c e7 f6 99 bd
       -0.008441947 -0.054481875 0.008106813 -0.07517796
000050 b2 1c 3c bf 0c 92 67 bd 83 24 ae 3d 8f 34 8b be
       -0.73481286 -0.056535766 0.08503058 -0.27188537
000060 c1 57 21 be 69 0b 45 bd 5e ca f1 3d 6a 34 d0 bc
       -0.15756132 -0.048106585 0.118061766 -0.025415618
000070 03 12 7a 3b c7 e9 20 3e 42 c0 b8 bd aa 99 7d be
       0.0038157708 0.15714179 -0.09021045 -0.2476565
000080 15 af ed be f7 d2 25 3d 82 37 cc 3d 8b 54 06 ba
       -0.4642264 0.040484395 0.09971525 -0.0005124292
000090 d5 13 e0 36 3f f4 14 3e 46 31 91 bc da 4b 70 be
       6.678029e-06 0.14546297 -0.01772369 -0.23466435
0000a0 d4 d8 eb 3d 28 a8 f7 be 7b 7e 15 bf 80 5c 81 3d
       0.11515966 -0.4837048 -0.5839612 0.06316471
0000b0 79 7d 91 3e f7 19 a0 3d a1 c6 71 be 64 d9 57 3e
       0.2841604 0.078174524 -0.23610927 0.21079022
0000c0 62 6c 0e be 33 6e 73 bd a8 6a 0f bd 85 d2 8a bc
       -0.13908532 -0.059431266 -0.035013825 -0.016946087
0000d0 d6 f3 b7 be 22 e4 4d 3e 40 40 57 3c 51 b3 6a be
       -0.3592822 0.20106557 0.013137877 -0.22919966
0000e0 e7 c9 64 3c 88 13 a3 3d a6 bd 76 be a0 b0 8e bc
       0.013964153 0.0796271 -0.24095783 -0.017418206
0000f0 f4 5d 6c bd 80 d9 51 3c 21 6b f1 3c d6 24 8c bd
       -0.05770679 0.012808204 0.029470028 -0.068429634
000100 41 bc b5 be dc 0e f4 bd e0 10 42 3f 73 e1 c6 bd
       -0.3549519 -0.11916897 0.75807 -0.0971097
000110 23 73 94 bd 1a 2e 7b 3f 1a 72 f0 bd 2c ff f5 3d
       -0.07248523 0.9811722 -0.11740513 0.12011561
000120 be 0b 04 3d 5d 7f 5e 3e b5 47 9e bd 77 02 33 3e
       0.03223776 0.21728273 -0.07728521 0.17481409
000130 13 13 ad bd 10 8b b7 bc 62 a2 bb 3c 52 72 92 be
       -0.08450904 -0.022405177 0.022904579 -0.28602844
000140 53 d1 8f 3d 2b 69 fb be ba d5 81 bd 17 3b ba bd
       0.07022347 -0.49103674 -0.06339593 -0.09093302
000150 83 44 9a bc 32 d4 85 bd eb b5 bd 3d 38 2f 1a bf
       -0.018831497 -0.06534614 0.09263214 -0.602283
000160 0b be 42 bd bb 60 13 be f2 07 24 be 89 c9 89 bd
       -0.04754452 -0.14392368 -0.16018656 -0.06727893
000170 f6 53 98 bd 5d 2e 46 3c 0f 97 6c 3c 50 04 cf 3e
       -0.07437889 0.012096015 0.014440312 0.40432978
000180 95 c7 19 3e c7 08 d6 bd 4e c6 af bd c7 f6 f6 3d
       0.15017541 -0.10450893 -0.085827455 0.12058788
000190 46 37 4e bd 5d a0 16 3d cd 8c b5 3d 10 6e 9a 3e
       -0.05034568 0.036774028 0.08864746 0.30162096
0001a0 13 a5 bc bd 0c 2a a8 3d c3 dd 82 be 45 96 5d 3c
       -0.09211173 0.08211145 -0.25559816 0.013524597
0001b0 d8 a5 ff 3c 3f e7 dc 3d be b2 d0 bd 44 09 b0 bd
       0.03120701 0.10786294 -0.10190342 -0.08595517
0001c0 ca f8 ae bd ba 6c 52 be aa 5b 07 3e ee 81 3c be
       -0.085435465 -0.20549288 0.13218561 -0.18408939
0001d0 d2 a8 25 be e4 04 b6 3d aa f1 c8 bd ae b2 5b 3e
       -0.16177681 0.088876516 -0.09811719 0.2145488
0001e0 e5 b2 8b 3c f5 0a 83 3d e4 7e aa 3e a7 f3 88 3d
       0.017053077 0.06398574 0.33299935 0.06687098
0001f0 83 8e 30 3d ac de 6c bd 80 3a d7 bc 70 9a 04 bc
       0.04310466 -0.057829544 -0.026273012 -0.008093461
000200 c8 0e 99 be 1c 75 d6 3d 9f ac 59 3f 5e 97 72 3e
       -0.2989409 0.104715556 0.85029024 0.23690554
000210 02 a2 c4 3c ec bd 51 3f d3 7a b2 be df 89 b6 3d
       0.024003033 0.8193042 -0.34859332 0.089130156
000220 8a 8e 81 bd 46 05 14 3e dc 44 b1 be f6 00 97 3e
       -0.06326015 0.14455137 -0.34622848 0.2949292
000230 27 f6 d5 3d 5b a9 24 3e 4a 25 cc bc 32 b9 f1 be
       0.104473405 0.16080229 -0.024920125 -0.47211605
000240 6f 0c 11 bf ca e5 8e bd 6c 60 6e 3d d8 c9 37 3c
       -0.566596 -0.069774225 0.058197424 0.011217557
000250 6f d0 11 bd 7c be 9d bd 6a 0c 7c 3c 35 42 9c be
       -0.03559917 -0.07702348 0.015383819 -0.30519262
000260 49 7d 13 3e 14 cf 37 3c 58 8b aa bc 4b 22 82 3d
       0.14403261 0.011218805 -0.020818397 0.06354197
000270 df ad 8f bc b6 d3 6b 3e c8 21 f4 3d b9 9d 56 be
       -0.017538963 0.2302998 0.11920506 -0.20958604
000280 b5 fb 54 be 15 c0 fe bd 08 3d ef bd 18 45 b9 3e
       -0.20799144 -0.124389805 -0.11681563 0.36185527
000290 30 fd e9 3d 6b ff 82 3d d0 4c 85 be e3 c0 e8 3d
       0.11425245 0.06396373 -0.26035166 0.11364915
0002a0 d6 2b 85 3d 25 a7 e1 be ba b9 be be 2f 7e ed be
       0.06502502 -0.44072834 -0.37251073 -0.46385333
0002b0 ab 94 1e 3e 71 80 98 3d 76 af e8 bd 62 83 94 3c
       0.154864 0.07446373 -0.113615915 0.018129054
0002c0 3f ca 45 3f 0b 0d c3 3c eb 4a 03 3d 52 7f 68 be
       0.7726173 0.02380993 0.03205387 -0.22704819
0002d0 d4 3e 00 3d 48 c7 80 3e c2 63 8b 3d b7 b8 69 3e
       0.031309918 0.2515204 0.06806137 0.2282437
0002e0 48 c0 6c 3d c6 32 89 bc 63 59 a8 3e 36 ee a4 bc
       0.05780056 -0.016747843 0.32880697 -0.02013312
0002f0 b3 46 c5 bd 34 35 93 3d 3f d1 9c 3c 14 a9 bb bd
       -0.096326254 0.07187882 0.019142745 -0.091631085
000300 b4 90 a2 be fe 6a aa 3d 5f 5b 39 3e e2 77 79 3e
       -0.31751025 0.083211884 0.18101262 0.24362138
000310 58 10 31 3c 71 ee 6c 3f 85 fb 78 be 19 c0 63 3d
       0.010807119 0.9255133 -0.24314697 0.05560312
000320 ab 85 38 be 71 1f 2b 3e 69 45 ac be 54 db 90 3e
       -0.1801974 0.16711213 -0.33646706 0.28292334
000330 03 35 c4 3d b3 b2 04 bd f2 48 d0 3e 50 f4 b0 be
       0.09580424 -0.032396983 0.40680653 -0.34561396
000340 86 9d 0f bf 8b c9 e6 bd 86 cd c8 3d f0 de c5 3d
       -0.56099737 -0.1126891 0.098048255 0.096616626
000350 97 e3 d2 3d 04 73 dd 3d 0f 71 33 be 04 de d7 be
       0.102973156 0.10812953 -0.17523597 -0.42161572
000360 27 1f bd bb e4 45 44 3d 4c 10 e9 be 7d 43 54 3d
       -0.005771536 0.047918215 -0.45520246 0.051822174
000370 28 5e 21 bd b5 7b c5 3e 7e cf f4 3d 6b 15 73 3e
       -0.039396435 0.38570943 0.119536385 0.23738639
000380 ec f7 a7 3d c1 8b 80 bd 51 b6 f7 bd de 8e b4 bc
       0.08201584 -0.06276656 -0.12095321 -0.02204078
000390 79 2f 27 bd b7 e5 94 3e 4a d6 7c bd 35 ef e0 3e
       -0.040816758 0.2908151 -0.0617278 0.439325
0003a0 2b 4d 07 3d 87 bb 89 3c 93 5d c2 3e 23 98 ab be
       0.033032577 0.016813053 0.37962016 -0.3351451
0003b0 25 c7 82 3d 2f 75 07 3d a5 c0 7e 3c 66 48 cc bc
       0.0638564 0.03307074 0.01554886 -0.024936866
0003c0 df 3c d6 3e 53 3a c6 ba 9e 06 ab 3d 08 74 51 be
       0.41843316 -0.0015123583 0.083508715 -0.20454419
0003d0 32 8d 67 3b 01 64 20 3e 20 ab 52 bd 9a 41 11 3e
       0.0035331962 0.15663148 -0.05143273 0.14185181
0003e0 45 00 37 3d 92 4e a2 bd bb 57 04 3f 74 03 3b 3e
       0.04467799 -0.07925142 0.51696366 0.18263036
0003f0 43 6f 40 be 36 53 fa 3d 28 b3 6b 3d 8e cb fd 3d
       -0.18792443 0.122229025 0.057543904 0.123923406

main.4.bias f4 [64]
000000 6a 54 53 3c e9 8b da bd f8 63 9d 3d cc 2d 1d be
       0.012898544 -0.10671217 0.07685083 -0.15349501
000010 65 68 0e be f1 4f 59 be 2d 10 01 be f2 ec ce bc
       -0.13907011 -0.21221901 -0.12603827 -0.025259469
000020 76 12 20 be a8 89 3e be ab 9c 39 be 53 d3 64 bd
       -0.15632042 -0.18607199 -0.1812617 -0.055865597
000030 7a 8b b8 bd 6a c3 a1 bd d4 16 0d 3e 80 0d b1 bd
       -0.09010978 -0.078986004 0.1377824 -0.08645153
000040 8e e2 bc bd 02 ef 56 be 4f dd 5f 3e bf 03 8a bc
       -0.092228994 -0.20989612 0.21861766 -0.01684749
000050 45 96 94 bd e5 cf a8 3d 7e 2f 2c 3d 34 d5 80 bd
       -0.07255224 0.08242778 0.04203748 -0.06290665
000060 5d e4 a5 bd 09 fb 13 3e 6e 63 a6 bd 4b 91 c4 bd
       -0.081001975 0.14451231 -0.081244335 -0.09598025
000070 6e 64 05 be f4 9b af 3e 87 08 4f be b2 94 12 be
       -0.13026592 0.3429867 -0.20218097 -0.14314535
000080 8a 22 fb bd f2 bc bf bd 68 3d a4 3e 37 78 25 be
       -0.12262447 -0.0936221 0.320781 -0.1615914
000090 5e e0 5f be 58 87 a5 3d 90 60 5c be d5 03 b3 bd
       -0.21862933 0.080824554 -0.2152121 -0.08740965
0000a0 88 5a fb bd 28 71 eb bd 08 96 46 be 20 8f 2a 3e
       -0.12273127 -0.11496192 -0.1939317 0.1665616
0000b0 23 95 61 be f8 98 2d be dd ee 6a 3e 4b 32 4a be
       -0.22029547 -0.16952884 0.22942682 -0.19745748
0000c0 60 91 c5 bd b8 dc 7a bd af b0 b7 bd 82 a1 4e 3e
       -0.09646869 -0.06124565 -0.089692466 0.20178798
0000d0 73 0c aa bd 93 76 56 be b1 f3 44 be 60 09 13 be
       -0.08303156 -0.2094367 -0.19233586 -0.14359045
0000e0 c1 61 2f bd de bc b9 3d 7c b7 82 bd df 72 73 bd
       -0.042817835 0.09069227 -0.06382653 -0.05943572
0000f0 31 d6 b7 bd f6 a1 ff bd ea f1 56 bd aa ff ba bd
       -0.08976401 -0.124820635 -0.0524768 -0.09130795

main.6.weight f4 [64, 64]
000000 4d 70 ce 3d 2d b8 fa bd f3 bb 3a bc 32 7f c0 bd
       0.100800134 -0.1224216 -0.01139735 -0.093992606
000010 ec 25 bd 3d 45 a5 b3 bd e0 c4 f5 3d ea 39 c0 3d
       0.09235749 -0.08771757 0.120004416 0.09386046
000020 3b 33 ec 3c 7c d7 f2 bd 39 1d a2 3d 5e eb ca bd
       0.028833022 -0.11857507 0.0791573 -0.09908174
000030 18 c5 c0 bd 4a f1 05 be 9b da 8a bc 4c 41 68 bd
       -0.09412593 -0.13080326 -0.016949942 -0.056702897
000040 13 03 06 be 96 e1 cc bd bf a9 1c bb 33 c9 cf bd
       -0.1308711 -0.100039646 -0.0023904887 -0.101457976
000050 cb b9 1f 3b 74 83 22 bd 70 d5 8c bd 08 8d 10 3d
       0.0024372216 -0.039676145 -0.068766475 0.035290748
000060 f0 cc 8a 3d 3c 2d c9 3d 70 22 d4 bc 68 41 3c 3d
       0.0677737 0.09823081 -0.025895327 0.045960814
000070 34 eb 36 bd 8c 7c c4 3d 4f 46 13 3d 80 9c b8 bd
       -0.0446579 0.09594068 0.035955723 -0.09014225
000080 66 a0 f5 3c e6 6a ed 3d 9e 8c 0e bd 14 a6 39 bd
       0.02998371 0.11592655 -0.03480207 -0.0453244
000090 b2 a4 ac bd ad 0e 1f bd 8c ff 25 bb 78 2b e6 3d
       -0.08429851 -0.038832355 -0.002532932 0.1123876
0000a0 68 77 d4 3d 55 c2 90 3d 89 b3 96 3d 67 77 ed bc
       0.103743374 0.07068316 0.07358462 -0.0289876
0000b0 5f bb e5 3d 8d 27 60 bd 54 c3 e7 bd 4a cd e3 bd
       0.11217379 -0.05472522 -0.11316553 -0.1112314
0000c0 06 b4 a7 bd 96 fd e2 3d ee fc b6 bd 5d 18 73 3b
       -0.081886336 0.11083524 -0.08934961 0.003709338
0000d0 22 b2 86 3d 88 79 0d be d6 02 99 bd 9c 6d 7c 3d
       0.06576945 -0.13815892 -0.07471244 0.06162797
0000e0 45 23 0d bd c0 d3 a6 3d 40 08 fb 3d b5 b5 f1 bc
       -0.034457464 0.08145857 0.12257433 -0.02950559
0000f0 54 01 5f bd 93 e5 27 3d 04 97 24 3d 13 8b fd bd
       -0.054444626 0.040990423 0.040183082 -0.12380042
000100 17 11 d0 bb cc 20 08 3e 63 0e 5d bc 9a f9 66 3e
       -0.0063496935 0.13293761 -0.0134922 0.22556153
000110 0b 34 13 be 4c 4c 1b 3e b7 52 1d 3c 36 bc 66 bd
       -0.14375322 0.15165824 0.00960224 -0.056331836
000120 97 e7 42 3d 45 88 f9 bb 38 c7 ed 3c 20 01 ae bd
       0.047584143 -0.0076151215 0.029025659 -0.08496308
000130 12 7e 06 bc d0 df 37 bd bd 73 f4 3d 37 d6 c2 bd
       -0.008208768 -0.04489118 0.11936138 -0.095135145
000140 88 12 73 3e 5f ca 9e bd 22 3e 3b 3d 93 d6 22 be
       0.23737538 -0.07753443 0.04571355 -0.15902166
000150 78 14 f8 3e 73 48 40 3d 78 9c 97 3d 56 c6 18 3e
       0.48453116 0.046944093 0.07402891 0.14919409
000160 6a 61 4b 3d 68 56 64 3f d2 e4 58 3e a4 65 49 3d
       0.04965345 0.89194345 0.21181038 0.049169198
000170 fa ca 60 bd 1b 74 4c be bb aa 6a 3e 99 50 7d bc
       -0.054881074 -0.19966166 0.22916691 -0.0154611105
000180 df ff 59 3e 8d bf 19 3d bd 68 66 be 7f 71 5f bd
       0.21289013 0.037536193 -0.22500892 -0.054551598
000190 0f b5 a8 3c 83 03 44 3e 2d a9 05 3e 81 69 6d 3c
       0.020594148 0.19141965 0.13052817 0.014490486
0001a0 45 46 c8 3d 6d 45 16 3d 85 b6 03 bd e8 92 36 3e
       0.09779028 0.036687303 -0.032156486 0.17829478
0001b0 6c af df 3d 54 ab db bd b8 5c c7 be 49 0e af 3e
       0.10922131 -0.107260376 -0.38937926 0.34190586
0001c0 0b 8e c2 3d 66 0a cb 3d d0 db ce bd 0e 3f 17 3e
       0.09499749 0.09914093 -0.1010052 0.14770147
0001d0 c2 bd 02 3c fd 63 2b 3d b4 fa b8 bd 78 9b b2 3d
       0.007979812 0.041843403 -0.09032193 0.087210596
0001e0 36 bf 9e 3c 35 d9 10 3e 5d 88 c2 3b 31 12 41 be
       0.019378286 0.14145358 0.005936666 -0.18854596
0001f0 99 49 dc bd 79 65 95 3e 31 1c a1 bd 72 48 67 3e
       -0.10756225 0.2917898 -0.07866705 0.2258623
000200 37 98 f5 3d 97 b6 37 bd c8 25 30 3e 3e 31 70 3d
       0.11991923 -0.044851866 0.17201912 0.05864071
000210 22 77 ca 3a 16 bf 71 3e 80 b9 35 bc 4d ef d1 3b
       0.0015446881 0.2360805 -0.01109159 0.0064067007
000220 3e 91 2e 3d b6 2f a4 bd 78 a9 60 3d a4 82 30 3d
       0.042618982 -0.08016913 0.054849118 0.04309334
000230 10 fc ae 3c 96 37 3d 3d de 98 85 3e 2f 0f b3 bc
       0.021360427 0.04619559 0.2609319 -0.021857826
000240 c5 bd 8d 3e e9 f8 47 3e 75 64 18 3e 3a 50 02 3d
       0.27683845 0.19528545 0.14882071 0.03181479
000250 b0 27 f4 3e 36 4f 34 3e f5 0b 18 3e 81 0e 0c bd
       0.4768653 0.17608342 0.14848311 -0.03419352
000260 78 7f 25 3d fb 4f 90 3f 73 7e b6 3b d3 06 21 be
       0.040404767 1.1274408 0.005569273 -0.1572526
000270 4b e5 88 bc b4 a8 6a be 96 c4 48 bc 47 0c 9d 3c
       -0.016710898 -0.22915918 -0.012253901 0.019170893
000280 b7 81 87 3d 11 bc 80 bd 84 3f 64 be bb 6c 94 3d
       0.06616538 -0.06285871 -0.22289854 0.07247301
000290 65 ba 04 bd 3b 83 0e 3e 2a 5e d8 3d fc 19 13 bd
       -0.032404322 0.13917248 0.10564835 -0.035913453
0002a0 50 84 90 bc b3 16 36 be 5a 48 94 bd 6e ee 76 3d
       -0.017641217 -0.17782097 -0.072403625 0.060285978
0002b0 c6 b9 d1 bd 0a 8e 48 bd f3 af ce bd 66 23 e7 3e
       -0.102405116 -0.048963584 -0.100921534 0.45144194
0002c0 06 a4 89 bd e5 a1 a9 3d 45 4b e6 3d 0f 5f 7d 3e
       -0.06720738 0.08282832 0.11244825 0.24743293
0002d0 9d 9c d3 bc 34 aa 17 3e 90 5c c9 3b 3d f5 2b be
       -0.025831515 0.14811021 0.0061450675 -0.1679277
0002e0 b0 3d 98 3d a6 6d 8e 3d 8e 83 e2 bd 2d 2c a1 bd
       0.07433641 0.069545075 -0.11060248 -0.07869754
0002f0 f3 e8 ac 3d 28 3e a4 3e 35 e9 bd bd ab b2 03 3e
       0.08442869 0.3207867 -0.09272996 0.12861125
000300 70 12 07 be 23 45 5b bd c5 e9 ab bc 3e d1 86 bd
       -0.13190627 -0.05353273 -0.020985493 -0.065828785
000310 67 0c 03 bc 4a 0c 92 3d b8 9b 5b 3d d0 ef ff 3d
       -0.007998562 0.0713125 0.0536153 0.124969125
000320 0e b1 85 bd 62 f4 cf bd b9 1a 1a 3d 44 85 0e bd
       -0.06527911 -0.10154034 0.03762314 -0.03479506
000330 e1 84 0f bc cd b2 31 bc b6 46 9e bd 08 a4 15 bd
       -0.008759708 -0.010845852 -0.07728331 -0.036533386
000340 a1 a2 e1 bc 00 70 09 3c 82 55 c1 3c 81 45 89 bb
       -0.027543368 0.008388519 0.023600344 -0.0041891937
000350 e9 e3 a4 bd 90 d7 c0 bd 57 cc db bd 80 af 78 bc
       -0.08051283 -0.09416115 -0.10732334 -0.015178561
000360 a4 27 96 3d ba 2e fe 3c 85 86 06 bd cf fe de bd
       0.073317796 0.03102814 -0.03284313 -0.10888445
000370 c0 78 66 bd 43 76 99 3c 29 d7 fe bd c6 4f 81 3d
       -0.0562675 0.01873315 -0.12443382 0.06314044
000380 d8 12 f2 3c 62 25 9d bd f5 c6 37 3d 58 a7 05 be
       0.029550001 -0.07673146 0.044867475 -0.13052118
000390 32 2b ce bd 52 6a 08 3d f7 34 10 be 40 86 a4 bc
       -0.100668326 0.03330452 -0.14082704 -0.020083547
0003a0 4c bb 74 bd d0 9e fd bd 6d fb 15 be 9a ed 5f 3d
       -0.059748933 -0.12383807 -0.14646693 0.054669954
0003b0 1b 4e 81 bb 9d 12 5b 3d e0 81 05 be 60 63 89 bc
       -0.0039460785 0.053484548 -0.13037825 -0.016771019
0003c0 c4 54 2c bd 88 38 ef 3c 5f fc 96 bd ff f9 7e bd
       -0.042073026 0.02920176 -0.07372355 -0.062250134
0003d0 1a dd 9f 3d 13 01 5f 3d 23 1f de 3c f9 cd 9f bd
       0.07805844 0.054444384 0.027114457 -0.07802958
0003e0 05 b4 13 bd 6e bf 22 be 60 02 c7 bc 08 be 42 bd
       -0.036060352 -0.15893337 -0.024293125 -0.04754451
0003f0 00 1e 7a bb 7a 9e b1 bd f8 58 98 3c 2c 19 09 bd
       -0.0038164854 -0.08672805 0.018597111 -0.03347127

main.6.bias f4 [64]
000000 c9 70 fc bd 5a 3d 44 bd 77 c4 a1 bd 84 1d 73 bd
       -0.123261996 -0.047910072 -0.07898801 -0.05935432
000010 e6 fb df 3d ff 78 e4 bd ac 70 c9 bd 49 7d ce 3d
       0.10936718 -0.11155891 -0.098359436 0.1008249
000020 62 c8 31 bd f3 89 24 3e ea 76 ef bd 0e 69 87 bd
       -0.04340399 0.16068248 -0.11692603 -0.066118345
000030 8e 3b bb bd 18 31 0f bd 4c c5 0b be f8 02 d2 bc
       -0.091422185 -0.03495893 -0.13649482 -0.025636181
000040 3e eb be bd bb f2 04 be 28 e0 52 bd 01 85 ef 3d
       -0.09322213 -0.1298322 -0.051483303 0.1169529
000050 7c c6 e2 3d 24 74 6d bd f9 d8 be bd d1 c1 ea bd
       0.11073014 -0.05797209 -0.09318728 -0.11462749
000060 a0 ea dd bd 3c 6b a2 bd 50 ca 81 3d ab 36 34 3e
       -0.10835767 -0.079306096 0.06337416 0.17598979
000070 8f dd 21 be b8 3c 28 bd c5 4a 92 bc 50 2c b2 bd
       -0.15807174 -0.04107353 -0.017857919 -0.08699858
000080 90 8a 8a bd 4b 3b 05 3e 47 98 9c 3d 26 06 4c 3e
       -0.0676471 0.130109 0.07646232 0.1992422
000090 b2 f3 1a be 84 94 1a 3e 8e 28 90 3e 9f 57 0c be
       -0.15132025 0.15095717 0.2815594 -0.137053
0000a0 d5 f4 d2 bd 48 c7 a7 bc f3 78 6e 3e 8d 26 8a 3e
       -0.10300604 -0.020480767 0.23288326 0.26982537
0000b0 e9 68 0a be 2d c1 f7 bd 9b 86 34 3e 33 02 b5 bc
       -0.13516583 -0.12097392 0.17629473 -0.022095775
0000c0 84 ed 05 be 9b 76 66 3e d7 50 df bd 45 3a 22 be
       -0.13078886 0.22506182 -0.10904091 -0.1584254
0000d0 63 9e e4 bd f5 0c d6 bd 65 7f 1d be 7f 4d 0f be
       -0.11163022 -0.1045169 -0.15380628 -0.13994406
0000e0 07 32 a3 bd 0a 3a e0 bd c5 98 77 3e 68 f8 ee 3d
       -0.07968526 -0.1094857 0.2417937 0.116684735
0000f0 3f c8 6d bd 0b e8 b3 3d 41 3f 0a bd 5c 0f 34 be
       -0.058052298 0.08784493 -0.03375173 -0.17583984

main.8.weight f4 [64, 64]
000000 ce 53 68 bd 7c 7f fa 3c ad 92 0c be 95 61 85 3d
       -0.056720547 0.030578367 -0.13727827 0.06512753
000010 6a 81 2b 3e 83 3e cd 3d e8 c1 18 3e a7 35 7d 3d
       0.16748586 0.10021689 0.1491772 0.061818745
000020 20 6b c7 bc 28 9a eb 3e 38 1e 8d bd 7d 7e 8e 3d
       -0.024343073 0.4601605 -0.068905294 0.069577195
000030 21 10 a6 3d a1 84 a9 3d 90 33 45 3d 4a fb be 3d
       0.08108545 0.0827725 0.048144877 0.09325273
000040 5e 8b 77 bd b9 47 4f bd 63 b4 05 3e 2b 3e 97 3c
       -0.060435645 -0.05060551 0.13057093 0.018462261
000050 03 95 a7 bd ff c9 52 bd d2 82 a3 bd 02 bd 82 bd
       -0.081827186 -0.05146217 -0.07983936 -0.06383707
000060 6e 59 dc 3d d6 2e 74 3d 05 d8 39 3d 35 32 9c 3e
       0.10759245 0.05961498 0.045372028 0.30507055
000070 5f 5f ca bd 04 f6 cb 3d df 73 de 3d 2e 64 9d bd
       -0.09881472 0.09959033 0.108619444 -0.076851234
000080 8b 46 15 3e 18 0b 32 3e dc 91 ec 3d ee 23 f0 3e
       0.14577691 0.17387044 0.11551258 0.46902412
000090 3b 9b b0 3c 93 74 ad bd ec 34 e7 3e a5 8d 5d be
       0.021558395 -0.084695004 0.45157564 -0.21636064
0000a0 2a 73 1f 3d 26 32 10 3d b2 7e d2 3e e1 6c 4f 3e
       0.03892819 0.035204075 0.41112286 0.20256378
0000b0 5a 14 e7 3d 49 07 20 3d ef 39 8a 3e 14 94 c6 bc
       0.11283179 0.039069448 0.26997325 -0.024240531
0000c0 7e 40 a4 3d 4d fb 9c 3e da c8 5c 3c f4 41 5c bd
       0.080201134 0.30660477 0.013475621 -0.053773835
0000d0 82 22 e4 bd 32 13 4f be 13 25 bd 3d 8b e9 cd bd
       -0.11139394 -0.20222166 0.09235587 -0.100543104
0000e0 63 0c f0 3d 1b 75 bc 3d 2a bc a2 3e 6b 1a 95 3e
       0.117211126 0.092020236 0.31784183 0.29121718
0000f0 97 00 a6 3d cb 55 8f bc 69 b7 7f bd 7c c3 5e 3d
       0.08105581 -0.017496964 -0.062430773 0.054385647
000100 98 d2 67 3d d5 62 5d bd 68 bc 9a bd 4c 4c ae 3d
       0.056597322 -0.05404933 -0.07555467 0.08510646
000110 cc a2 ac 3d a3 9f a9 3c f6 8d 99 3d 36 32 7c bd
       0.084294885 0.020706004 0.0749778 -0.061571322
000120 64 a0 b3 3d 26 e3 90 3d 40 4f 90 bb 56 52 da 3d
       0.087708265 0.07074575 -0.0044039786 0.106602356
000130 f0 85 b7 bd 6b e0 07 be 32 05 16 be e8 f7 5c 3d
       -0.089610934 -0.13269202 -0.1465042 0.05394736
000140 90 2b 97 bc 70 71 32 3c f9 4d b0 bd 6c 2e f4 3d
       -0.01845339 0.010891303 -0.08608622 0.11922917
000150 47 b5 1c bd 27 97 8b bd 52 e6 94 bd 70 d4 fd bc
       -0.038258817 -0.068159394 -0.072704926 -0.030985087
000160 90 18 f3 bc b6 d0 95 bd 51 92 dc bd 28 7b 6a bd
       -0.029674798 -0.07315199 -0.10770095 -0.057246357
000170 d8 5b a8 3d 08 a2 0c bd aa 91 95 bd 8d 8f c0 3d
       0.08220643 -0.034334213 -0.07303174 0.0940238
000180 4b 81 ae bb 92 9c e0 bd 1b 27 0e be 60 f3 5c 3c
       -0.0053254715 -0.109673634 -0.13882105 0.0134857595
000190 1c fa 7b bd 2f 3c c0 3d 28 14 3f 3d 13 60 a5 3c
       -0.06151782 0.09386479 0.046650082 0.020187413
0001a0 ed 89 9a 3b 40 f8 78 bc 38 9e 54 bd b5 49 90 bd
       0.004716149 -0.015195906 -0.0519087 -0.070453085
0001b0 60 6d 23 bc 38 2d aa bd dc 56 90 bd 6a d8 b8 3d
       -0.0099748075 -0.08309406 -0.07047817 0.09025653
0001c0 61 d3 17 bc c8 66 40 3d 84 f7 b1 bd 68 9f e4 3c
       -0.009266705 0.04697302 -0.08689788 0.027908042
0001d0 fd 0d 53 bd ba 2f 0c bd 70 60 81 bd 74 ab f0 3d
       -0.051527012 -0.034225203 -0.06317222 0.11751452
0001e0 7c bd 3f 3d 7a ce 86 3d 40 c8 6f 3c 48 36 b7 bc
       0.046811566 0.06582351 0.014635146 -0.02236475
0001f0 a8 b7 f1 3d f0 80 dd bc ae c9 9c 3c 30 4d 7f 3c
       0.11802608 -0.027039021 0.019139137 0.015582368
000200 60 71 88 3b 33 74 0e 3d b3 c5 18 be b0 f4 8f 3b
       0.004163906 0.034778785 -0.14919166 0.0043931827
000210 12 6f 84 ba bd 20 e9 3c d2 cf 03 3d f2 5c 72 be
       -0.0010103902 0.028457994 0.032180615 -0.23668268
000220 6c 0a 48 3d 5e 81 cc 3d 9b bf 17 bc 1f ab 98 3d
       0.048838064 0.09985612 -0.009261991 0.07454514
000230 60 14 66 bd 64 fe e5 3c ea 66 cf 3d be 09 94 3d
       -0.056171775 0.028075404 0.10127051 0.07228421
000240 e4 fc 35 bd 07 bf 06 bd 18 9f 1b be 64 63 6b 3f
       -0.04443063 -0.03289702 -0.15197408 0.91948533
000250 62 05 87 bc aa 87 4a bd d8 55 77 bd f0 15 e4 3c
       -0.016482059 -0.049445786 -0.0603846 0.027842492
000260 26 55 cf bd b1 ee db 3d b7 98 2d be 01 4e 57 3d
       -0.10123663 0.10738886 -0.16952787 0.052564625
000270 77 42 dd bd ba da d7 3d 48 2e 5d 3d 2e d1 89 bd
       -0.10803693 0.10539766 0.053999215 -0.06729351
000280 a1 e8 46 3d 2e 90 36 bc 16 e4 cf bd 7f c8 c8 3d
       0.048561696 -0.011142774 -0.10150926 0.098038666
000290 79 6a 4a bd c5 0e 66 be b7 1b b1 bd 3a 86 a1 bd
       -0.049417946 -0.22466572 -0.08647864 -0.0788693
0002a0 7d 68 a7 bd 29 7c 21 bc 46 3a 4e bc 6d 7a e5 bc
       -0.081742264 -0.009856262 -0.012587136 -0.028012479
0002b0 8f 4e d2 3c ea 9e c3 bd 86 88 82 3d 10 c5 cf bd
       0.025672225 -0.09551795 0.06373696 -0.101450086
0002c0 63 73 29 bd 00 df bb bd 77 63 8f bc 40 fc c7 bd
       -0.041369807 -0.09173393 -0.017503483 -0.0976491
0002d0 38 59 27 be d7 4d 7d 3a be bf 7b bc 8f 03 31 bd
       -0.16342628 0.0009662783 -0.015365539 -0.043216284
0002e0 80 a4 3a 3d d0 fd 89 bd 30 0d 99 3d 06 8f 18 3e
       0.045567036 -0.06737864 0.074732184 0.14898309
0002f0 14 82 8a bd b2 9e 87 3a 2f ce a4 3c a6 ec d5 3d
       -0.06763092 0.0010346978 0.020117847 0.10445528
000300 0c b2 10 bd 94 41 80 3d f4 a8 ac bd e4 a5 3f 3d
       -0.03532605 0.06262508 -0.08430663 0.046789065
000310 2c 1f b5 3d 16 9c d4 bd f8 cc b7 bd 50 a3 6c bc
       0.08843836 -0.103813335 -0.089746416 -0.014443234
000320 80 9e ac 3a 6c 3d 58 bd d0 a1 b8 3d 00 fd 1b 3c
       0.0013169795 -0.05279295 0.09015238 0.009520769
000330 82 8e d1 3d c0 5d c0 bc a0 64 38 3d e6 41 f0 bd
       0.10232259 -0.023482203 0.04501784 -0.11731319
000340 d8 06 62 bd 64 ba ed bd 34 40 ed 3d 90 97 6f 3c
       -0.055182308 -0.11607817 0.115845114 0.014623538
000350 e8 e0 28 bd d8 6a 9d 3d 00 60 a7 37 9a 01 ad 3d
       -0.041230112 0.076863945 1.9952655e-05 0.08447571
000360 94 6e d1 bd 00 8a 4b bb f0 93 b8 bd 68 62 1c 3d
       -0.10226169 -0.0031057596 -0.09012592 0.038179785
000370 10 18 63 3d 88 aa 78 3d c4 ae f0 bd fc 90 3a bd
       0.05544287 0.060709506 -0.11752084 -0.045548424
000380 88 ce ac 3c 1a a7 c8 3d e8 ce f7 3c d0 e6 9c bc
       0.021094576 0.09797497 0.030250028 -0.019153029
000390 fe 2a ba bd b6 16 fa bd 78 9c 1f 3d e0 de e9 3d
       -0.09090231 -0.12211363 0.03896758 0.11419463
0003a0 ec 3f 8a 3d 56 d5 c6 3d d0 62 e8 3c 4a 2c b1 bd
       0.067504734 0.09708659 0.02836743 -0.086510256
0003b0 76 00 b3 bd 4a bc a2 3d dc f7 e4 bd ec 51 6c bd
       -0.08740322 0.079460695 -0.11180088 -0.057695314
0003c0 7c af 09 bd 4a 4c a9 3d 8c e3 bb bd 00 e1 b5 bc
       -0.03361462 0.08266504 -0.091742605 -0.022202015
0003d0 80 94 8b bd 68 8e ef bc 92 57 99 3d a0 10 d6 bb
       -0.068154335 -0.02924271 0.07487406 -0.0065327436
0003e0 70 f0 04 3d 4c 35 d6 bd ba fc ff bd de 30 e3 bd
       0.03245586 -0.10459384 -0.12499376 -0.11093305
0003f0 18 33 b8 bd 50 44 f5 bd 28 27 d6 3c 38 5e 5b bd
       -0.0899412 -0.1197592 0.026141718 -0.05355665

main.8.bias f4 [64]
000000 f6 b0 59 3e cb 0f ec bd 48 b2 e3 bd 6e 6c ab bd
       0.21258911 -0.1152645 -0.11117989 -0.08370291
000010 1a 60 0f be cb 96 ab bd 01 73 17 be f6 4a 50 3e
       -0.14001504 -0.08378371 -0.14789964 0.20341095
000020 d8 85 80 bd 74 f5 87 bd fb f7 9d bd d1 ad 84 3e
       -0.06275529 -0.06638613 -0.07713314 0.2591386
000030 96 db 60 bd 0c 34 8e 3e 5c 5f 98 3e ac 4e b8 3d
       -0.054896913 0.27774084 0.29760253 0.089993805
000040 b5 2a 2a 3e b8 c6 90 3d 45 5e 64 3d 69 7c 5d bd
       0.16617854 0.070691526 0.055753965 -0.054073725
000050 72 53 cc 3d de 0b d2 bd a7 d0 ab 3d fa 8a 90 3e
       0.099768534 -0.1025617 0.08389407 0.2823103
000060 91 ce ee 3d fc e4 3e bd d4 37 84 bd eb 5d 2a be
       0.11660493 -0.046605095 -0.06455961 -0.1663739
000070 31 3d 90 3e 19 e0 88 bd 14 64 05 bd a1 9d aa bd
       0.28171685 -0.06683368 -0.032566145 -0.083308466
000080 f5 6e 2e 3d 6a 8b 42 be ff c0 81 bd 66 b6 1a 3d
       0.042586286 -0.18998495 -0.06335639 0.037771605
000090 f6 11 ad bd 12 b9 93 3e 8d 04 12 3f a0 6f 43 3d
       -0.084506914 0.28852135 0.57038194 0.047713876
0000a0 d3 78 c0 3d 18 60 06 3e e7 7c 57 bd cc 71 95 3e
       0.093980454 0.13122594 -0.05260935 0.29188383
0000b0 ff 4f 95 3e 62 e8 86 3d 89 83 3d 3c 28 07 14 3e
       0.29162595 0.06587292 0.011567005 0.14455855
0000c0 47 4e 08 3f de b7 48 bd 4b 13 28 be 54 13 68 3e
       0.5324444 -0.049003474 -0.1641361 0.22663623
0000d0 30 af b1 3d fc 20 0c be 9b 47 f2 3d 3d 45 f0 bd
       0.086759925 -0.13684458 0.11830064 -0.11731956
0000e0 8b b3 90 bd 7f 85 cc 3d 93 19 c3 bd 55 f6 33 3e
       -0.07065495 0.099864 -0.09526362 0.17574437
0000f0 9f a8 58 3d 44 7e 67 bd 36 41 ff bd ae 0f 09 bd
       0.052895185 -0.0565169 -0.1246361 -0.03346222

main.10.weight f4 [1, 64]
000000 7c 7a 21 3e e5 e2 9b 3d 49 88 5d 3c 96 40 be 3d
       0.1576938 0.07611636 0.013521262 0.092896625
000010 d2 ac 74 3d f7 34 c9 3d bf 07 02 3c bb 87 99 3f
       0.059735127 0.09824555 0.007936417 1.1994547
000020 e6 3c 7e 3d 6e a2 aa 3d 44 4b f2 bb 8f 5b 84 3e
       0.062069796 0.08331762 -0.0073942263 0.25851104
000030 14 bc 1b 3a 17 be 74 3e 0c 6d 5d 3f 83 5a 5f be
       0.00059408066 0.23900639 0.8649452 -0.21811871
000040 19 81 89 3e bd 5d 66 be db 60 1a be 3d 9a 56 bc
       0.26856306 -0.22496696 -0.1507601 -0.013098297
000050 6f e6 67 be ce c0 0a bd 96 e3 d9 bd 6c 94 89 3e
       -0.22646497 -0.03387528 -0.10639112 0.2687105
000060 dd 12 31 be 55 25 66 3c 00 14 a8 3b 46 f8 cf be
       -0.17292352 0.014046987 0.0051293373 -0.40619105
000070 2e 00 1a 3e 0d 48 5c bd e0 7c 90 3c 79 16 f4 ba
       0.15039131 -0.05377965 0.01763767 -0.001862242
000080 cf a8 07 be 37 33 aa be 63 ca 29 bc 3d 15 2e be
       -0.13247989 -0.332422 -0.010363194 -0.1700029
000090 e1 c2 dc 3c d5 13 9c 3e e0 dc 47 3f cd 11 1e be
       0.026948394 0.3048388 0.78071404 -0.15436478
0000a0 c7 be 4d be 5a b4 32 be c9 c8 4a be 09 1b ac 3e
       -0.20092307 -0.17451611 -0.19803156 0.33614376
0000b0 c7 00 a2 3e 22 1d 0e be f8 01 2b be d6 61 50 3e
       0.31641218 -0.13878301 -0.1669997 0.20349821
0000c0 28 4f 15 3f ef 23 81 3d 85 50 ba bd 8f 96 8a 3e
       0.5832391 0.06305682 -0.09097389 0.27067992
0000d0 58 59 56 be 1e b7 ca bc 3e 67 d5 bd 97 9e 4b 3d
       -0.2093252 -0.02474552 -0.104200825 0.04971179
0000e0 ff 8b a5 3c 3d e1 eb bd 35 46 b8 bd ed 00 92 3e
       0.020208357 -0.1151757 -0.08997766 0.2851633
0000f0 95 49 88 3e 27 52 1d 3d 58 ea 7d bb 73 8e e1 3d
       0.2661864 0.038408425 -0.0038744416 0.11013498
